…
2025-09-04 16:08:40,153 [INFO] Path logs/sports_cv_project_classification/vgg11-gap-base/val created or existed
2025-09-04 16:08:40,153 [INFO] Path logs/sports_cv_project_classification/vgg11-gap-base/test created or existed
2025-09-04 16:08:40,153 [INFO] Folder checkpoints/sports_cv_project_classification/vgg11-gap-base was removed with its entire content
2025-09-04 16:08:40,153 [INFO] Path checkpoints/sports_cv_project_classification/vgg11-gap-base created or existed
2025-09-04 16:08:40,442 [INFO] Training started...
2025-09-04 16:08:40,442 [INFO] BuildModel(
  (backbone): VGG(
    (features): Sequential(
      (block0conv0): Conv2d(3, 64, kernel_size=(3, 3), stride=(1, 1), padding=(1, 1))
      (block0activation0): ReLU(inplace=True)
      (block0pool): MaxPool2d(kernel_size=2, stride=2, padding=0, dilation=1, ceil_mode=False)
      (block1conv0): Conv2d(64, 128, kernel_size=(3, 3), stride=(1, 1), padding=(1, 1))
      (block1activation0): ReLU(inplace=True)
      (block1pool): MaxPool2d(kernel_size=2, stride=2, padding=0, dilation=1, ceil_mode=False)
      (block2conv0): Conv2d(128, 256, kernel_size=(3, 3), stride=(1, 1), padding=(1, 1))
      (block2activation0): ReLU(inplace=True)
      (block2conv1): Conv2d(256, 256, kernel_size=(3, 3), stride=(1, 1), padding=(1, 1))
      (block2activation1): ReLU(inplace=True)
      (block2pool): MaxPool2d(kernel_size=2, stride=2, padding=0, dilation=1, ceil_mode=False)
      (block3conv0): Conv2d(256, 512, kernel_size=(3, 3), stride=(1, 1), padding=(1, 1))
      (block3activation0): ReLU(inplace=True)
      (block3conv1): Conv2d(512, 512, kernel_size=(3, 3), stride=(1, 1), padding=(1, 1))
      (block3activation1): ReLU(inplace=True)
      (block3pool): MaxPool2d(kernel_size=2, stride=2, padding=0, dilation=1, ceil_mode=False)
      (block4conv0): Conv2d(512, 512, kernel_size=(3, 3), stride=(1, 1), padding=(1, 1))
      (block4activation0): ReLU(inplace=True)
      (block4conv1): Conv2d(512, 512, kernel_size=(3, 3), stride=(1, 1), padding=(1, 1))
      (block4activation1): ReLU(inplace=True)
      (block4pool): MaxPool2d(kernel_size=2, stride=2, padding=0, dilation=1, ceil_mode=False)
    )
  )
  (detecton_head): GAPDoubleLinearHead(
    (classifier): Sequential(
      (0): AvgPool2d(kernel_size=(7, 7), stride=(7, 7), padding=0)
      (1): Flatten(start_dim=1, end_dim=-1)
      (2): Linear(in_features=512, out_features=4096, bias=True)
      (3): ReLU(inplace=True)
      (4): Dropout(p=0.5, inplace=False)
      (5): Linear(in_features=4096, out_features=4096, bias=True)
      (6): ReLU(inplace=True)
      (7): Dropout(p=0.5, inplace=False)
      (8): Linear(in_features=4096, out_features=100, bias=True)
    )
  )
)
2025-09-04 16:08:56,674 [INFO] New metrics saved to logs/sports_cv_project_classification/vgg11-gap-base/train/metrics.json
2025-09-04 16:08:56,674 [INFO] loss: 4.578347 accuracy: 0.016406 top-5-accuracy: 0.068437
2025-09-04 16:09:12,573 [INFO] New metrics saved to logs/sports_cv_project_classification/vgg11-gap-base/train/metrics.json
2025-09-04 16:09:12,573 [INFO] loss: 4.376564 accuracy: 0.019844 top-5-accuracy: 0.101250
…
