…
2025-09-06 18:41:05,709 [INFO] Path logs/sports_cv_project_classification/vgg11-paper-pretrained-w-augmenations-exponential_lr/test created or existed
2025-09-06 18:41:05,709 [INFO] Folder checkpoints/sports_cv_project_classification/vgg11-paper-pretrained-w-augmenations-exponential_lr was removed with its entire content
2025-09-06 18:41:05,709 [INFO] Path checkpoints/sports_cv_project_classification/vgg11-paper-pretrained-w-augmenations-exponential_lr created or existed
2025-09-06 18:41:06,611 [INFO] Training started...
2025-09-06 18:41:06,611 [INFO] BuildModel(
  (backbone): VGG(
    (features): Sequential(
      (block0conv0): Conv2d(3, 64, kernel_size=(3, 3), stride=(1, 1), padding=(1, 1))
      (block0activation0): ReLU(inplace=True)
      (block0pool): MaxPool2d(kernel_size=2, stride=2, padding=0, dilation=1, ceil_mode=False)
      (block1conv0): Conv2d(64, 128, kernel_size=(3, 3), stride=(1, 1), padding=(1, 1))
      (block1activation0): ReLU(inplace=True)
      (block1pool): MaxPool2d(kernel_size=2, stride=2, padding=0, dilation=1, ceil_mode=False)
      (block2conv0): Conv2d(128, 256, kernel_size=(3, 3), stride=(1, 1), padding=(1, 1))
      (block2activation0): ReLU(inplace=True)
      (block2conv1): Conv2d(256, 256, kernel_size=(3, 3), stride=(1, 1), padding=(1, 1))
      (block2activation1): ReLU(inplace=True)
      (block2pool): MaxPool2d(kernel_size=2, stride=2, padding=0, dilation=1, ceil_mode=False)
      (block3conv0): Conv2d(256, 512, kernel_size=(3, 3), stride=(1, 1), padding=(1, 1))
      (block3activation0): ReLU(inplace=True)
      (block3conv1): Conv2d(512, 512, kernel_size=(3, 3), stride=(1, 1), padding=(1, 1))
      (block3activation1): ReLU(inplace=True)
      (block3pool): MaxPool2d(kernel_size=2, stride=2, padding=0, dilation=1, ceil_mode=False)
      (block4conv0): Conv2d(512, 512, kernel_size=(3, 3), stride=(1, 1), padding=(1, 1))
      (block4activation0): ReLU(inplace=True)
      (block4conv1): Conv2d(512, 512, kernel_size=(3, 3), stride=(1, 1), padding=(1, 1))
      (block4activation1): ReLU(inplace=True)
      (block4pool): MaxPool2d(kernel_size=2, stride=2, padding=0, dilation=1, ceil_mode=False)
    )
  )
  (detecton_head): DoubleLinearHead(
    (classifier): Sequential(
      (0): Flatten(start_dim=1, end_dim=-1)
      (1): Linear(in_features=25088, out_features=4096, bias=True)
      (2): ReLU(inplace=True)
      (3): Dropout(p=0.5, inplace=False)
      (4): Linear(in_features=4096, out_features=4096, bias=True)
      (5): ReLU(inplace=True)
      (6): Dropout(p=0.5, inplace=False)
      (7): Linear(in_features=4096, out_features=100, bias=True)
    )
  )
)
2025-09-06 18:41:17,859 [INFO] New metrics saved to logs/sports_cv_project_classification/vgg11-paper-pretrained-w-augmenations-exponential_lr/train/metrics.json
2025-09-06 18:41:17,859 [INFO] loss: 3.785313 accuracy: 0.189688 top-5-accuracy: 0.390937
2025-09-06 18:41:27,809 [INFO] New metrics saved to logs/sports_cv_project_classification/vgg11-paper-pretrained-w-augmenations-exponential_lr/train/metrics.json
…
