2025-09-11 16:03:41,352 | INFO | S3 bucket computer-vision-models-pytorch-bucket exists.
2025-09-11 16:03:41,441 | INFO | DynamoDB table computer-vision-models-config-table exists.
2025-09-11 16:03:41,443 | INFO | Global seed set to 42
2025-09-11 16:03:41,484 | INFO | Added item to DynamoDB table: dynamodb.Table(name='computer-vision-models-config-table')
2025-09-11 16:03:41,889 | INFO | Loading weights criteria are not defined.
2025-09-11 16:03:41,890 | INFO | Training started...
2025-09-11 16:03:41,891 | INFO | BuildModel(
  (backbone): VGG(
    (features): Sequential(
      (block0conv0): Conv2d(3, 64, kernel_size=(3, 3), stride=(1, 1), padding=(1, 1))
      (block0activation0): ReLU(inplace=True)
      (block0pool): MaxPool2d(kernel_size=2, stride=2, padding=0, dilation=1, ceil_mode=False)
      (block1conv0): Conv2d(64, 128, kernel_size=(3, 3), stride=(1, 1), padding=(1, 1))
      (block1activation0): ReLU(inplace=True)
      (block1pool): MaxPool2d(kernel_size=2, stride=2, padding=0, dilation=1, ceil_mode=False)
      (block2conv0): Conv2d(128, 256, kernel_size=(3, 3), stride=(1, 1), padding=(1, 1))
      (block2activation0): ReLU(inplace=True)
      (block2conv1): Conv2d(256, 256, kernel_size=(3, 3), stride=(1, 1), padding=(1, 1))
      (block2activation1): ReLU(inplace=True)
      (block2pool): MaxPool2d(kernel_size=2, stride=2, padding=0, dilation=1, ceil_mode=False)
      (block3conv0): Conv2d(256, 512, kernel_size=(3, 3), stride=(1, 1), padding=(1, 1))
      (block3activation0): ReLU(inplace=True)
      (block3conv1): Conv2d(512, 512, kernel_size=(3, 3), stride=(1, 1), padding=(1, 1))
      (block3activation1): ReLU(inplace=True)
      (block3pool): MaxPool2d(kernel_size=2, stride=2, padding=0, dilation=1, ceil_mode=False)
      (block4conv0): Conv2d(512, 512, kernel_size=(3, 3), stride=(1, 1), padding=(1, 1))
      (block4activation0): ReLU(inplace=True)
      (block4conv1): Conv2d(512, 512, kernel_size=(3, 3), stride=(1, 1), padding=(1, 1))
      (block4activation1): ReLU(inplace=True)
      (block4pool): MaxPool2d(kernel_size=2, stride=2, padding=0, dilation=1, ceil_mode=False)
    )
  )
  (detecton_head): GAPDoubleLinearHead(
    (classifier): Sequential(
      (0): AvgPool2d(kernel_size=(7, 7), stride=(7, 7), padding=0)
      (1): Flatten(start_dim=1, end_dim=-1)
      (2): Linear(in_features=512, out_features=4096, bias=True)
      (3): ReLU(inplace=True)
      (4): Dropout(p=0.5, inplace=False)
      (5): Linear(in_features=4096, out_features=4096, bias=True)
      (6): ReLU(inplace=True)
      (7): Dropout(p=0.5, inplace=False)
      (8): Linear(in_features=4096, out_features=100, bias=True)
    )
  )
)
2025-09-11 16:04:17,259 | INFO | Epoch summary loss: 4.603128 accuracy: 0.010279 top-5-accuracy: 0.058356
2025-09-11 16:04:18,814 | INFO | Current lr: 4.0432496221752784e-05
2025-09-11 16:04:18,814 | INFO | Last best score 4.60663115978241 - 0 steps ago
2025-09-11 16:04:18,814 | INFO | {'epoch_accuracy': 0.01600000075995922, 'epoch_top-5-accuracy': 0.05000000074505806, 'epoch_loss': 4.60663115978241, 'epoch': 0, 'dataset': 'val'}
…
